ChatBot/data.pth (torch, 6807 bytes, 6 tensors)

l1.weight f4 [8, 84]
000000 23 66 59 3f dd 5f f6 3d 02 01 15 3f 4c 1c 88 3e
       0.84921473 0.12030003 0.5820466 0.2658409
000010 1a 66 35 bd 49 da 8b be cd cf 88 be 75 4a c8 bd
       -0.044286825 -0.27314976 -0.2672104 -0.097798266
000020 d3 d3 12 3f 2d 81 ab 3c 78 be 05 bf 44 7b 2a be
       0.5735447 0.02093562 -0.5224376 -0.16648585
000030 9b d9 df 3d a6 96 a0 3e c3 d6 4b 3c 24 ed bf 3e
       0.10930177 0.31364936 0.01244134 0.3748561
000040 bd 44 d1 be ed c3 1f be bd 18 49 be bd df 91 be
       -0.40872756 -0.15602084 -0.19638343 -0.2849101
000050 bc c6 ab 3d 15 7a 9c be a1 3e 28 3f eb 56 37 3e
       0.08387515 -0.3056189 0.65720564 0.1790425
000060 84 1f 3f 3f e9 31 67 be cb 34 bd bd c4 56 31 be
       0.74657464 -0.22577633 -0.09238585 -0.17318255
000070 f1 b2 de bd 3b b2 15 3f 77 ba 83 3e 6d 6e ea 3d
       -0.10873974 0.58475083 0.257282 0.11446843
000080 b8 60 f5 be eb 6d 0f 3f 8a f6 b4 3e a8 75 f5 be
       -0.47925353 0.56027097 0.35344344 -0.47941327
000090 2a 14 f5 be 17 1b b1 bd ed 52 1b 3d 54 78 8f be
       -0.47866946 -0.08647745 0.03792088 -0.2802149
0000a0 1f 7f 09 3f 49 56 72 3c f8 1f ad be f5 91 ac 3d
       0.53709596 0.01479108 -0.33813453 0.084262766
0000b0 d5 a7 96 bd fa 27 36 3f 45 68 13 3f 79 32 8b be
       -0.0735623 0.7115475 0.5758098 -0.27186945
0000c0 96 62 92 3e 14 a4 10 3f 22 88 4d 3d d9 dd 9f 3d
       0.2859084 0.56500363 0.050178654 0.07805986
0000d0 9f d7 8a 3f e9 57 c5 3d 86 58 a9 3e 19 cc 12 3f
       1.0847052 0.09635908 0.3307535 0.5734268
0000e0 26 b0 7e 3f e6 95 89 be dd 81 20 be f7 00 3f be
       0.9948753 -0.26872176 -0.15674539 -0.18652712
0000f0 0d 4c a5 be f5 7b 0d bd 1d 6d a3 3f 0a 47 1d 3f
       -0.32284585 -0.034542043 1.2767674 0.6143652
000100 93 c3 84 3d 15 5b 14 3e 67 70 45 3f 1d ab 3b be
       0.06482615 0.1448787 0.7712464 -0.18326993
000110 67 a5 99 3f a5 8f 22 3f 13 ef 01 3f 9c 6a 66 be
       1.2003602 0.63500434 0.50755423 -0.22501606
000120 10 73 08 3f 2a f0 33 3e 8b 1c f7 3e e1 8f 81 bf
       0.5330057 0.17572084 0.48263964 -1.0122033
000130 25 57 16 be db f2 df bd 33 1e ea 3e 94 85 c4 be
       -0.1468168 -0.10934993 0.45726165 -0.38383162
000140 42 b8 ce 3e 14 6d 10 3f 39 7d 28 3e 1b de d0 3d
       0.40374953 0.5641644 0.16454019 0.10198613
000150 b9 7f d3 3d 7d c3 76 3e 32 3d f4 bd 26 dd aa be
       0.103270955 0.2409801 -0.119257346 -0.33371848
000160 80 b8 91 3e af e6 1d 3f 8b e2 ff 3e 87 46 8d 3e
       0.28461075 0.6168012 0.49977526 0.2759287
000170 0a a7 1d bd 91 a3 38 3e 97 c5 34 bf 67 fe 97 3f
       -0.03848938 0.18031146 -0.70614 1.1874512
000180 13 2e fc be d0 f3 65 be c5 5f 7d 3d f9 85 f0 be
       -0.49253902 -0.22456288 0.06185891 -0.46977213
000190 70 cf 8c 3f 7f 3d 77 be df f5 1b bf d4 07 62 3f
       1.1000805 -0.24144553 -0.60922045 0.88293195
0001a0 52 db c6 bd 0a 03 14 3f 76 38 88 be a4 00 0c 3e
       -0.09709801 0.5781714 -0.26605576 0.1367212
0001b0 96 45 eb be 75 19 db 3d e0 32 08 be 59 a5 10 3f
       -0.45951527 0.10698215 -0.13300657 0.565023
0001c0 0f 1b 89 3f d3 45 c4 3e 7f 5e 38 bd b0 1b 92 bc
       1.0711383 0.38334522 -0.045011993 -0.017835468
0001d0 26 ca 46 3f 00 8f ae 3d ca 7d 85 3e f0 7b 2f 3f
       0.77652204 0.08523369 0.26072532 0.6854849
0001e0 ec d8 39 3f 99 46 29 be ce dc aa 3e f1 0a 34 3f
       0.7259662 -0.16530837 0.33371586 0.70329195
0001f0 c4 3e 0f 3e 11 7a 67 3e 68 d1 58 bf 25 8a 16 be
       0.13988787 0.22605158 -0.8469453 -0.14701135
000200 27 10 27 3f 55 6e c4 be 75 3a 06 3d 0d 33 49 3f
       0.6525902 -0.38365427 0.032770593 0.7859352
000210 4e 14 90 be 24 16 a2 be 96 61 29 bf 19 1d 0e 3f
       -0.2814049 -0.31657517 -0.6616453 0.5551315
000220 6d f2 84 bb eb 52 a6 3e 39 7c b7 be f5 ec ce bd
       -0.0040572197 0.32485136 -0.35836962 -0.1010379
000230 25 75 62 bf dd 32 33 3f 6b 73 d6 be 9d f8 2b 3f
       -0.8846 0.69999486 -0.41884932 0.6717623
000240 d5 30 1f bf 79 8a dd 3e 47 2d 8b 3f 60 13 84 be
       -0.62183887 0.4326971 1.0873193 -0.25796032
000250 53 3c c9 be 84 ce 37 3f 2e 29 c6 be b5 7c 1a bf
       -0.39303836 0.7179949 -0.38703293 -0.6034654
000260 62 bb 34 3e 0f 95 48 3c ff 1f 12 3f 9e 79 4c bd
       0.17649606 0.01224257 0.5708007 -0.04992067
000270 89 37 6a bc 1b ed a0 3e 97 a0 58 be fb 87 63 3f
       -0.014295467 0.31430897 -0.2115501 0.88879365
000280 ec 13 28 3f 2d 41 9e 3e 2f a2 b4 be 7f 02 da 3e
       0.656554 0.309091 -0.35279986 0.4258003
000290 21 c5 0b 3e 60 7d 0e be c5 68 cc 3e 53 44 50 be
       0.13649417 -0.13915014 0.39923683 -0.20338564
0002a0 27 a7 3c 3e b2 a1 92 3e b5 1d ca 3e 10 bd be be
       0.18423139 0.2863899 0.3947579 -0.37253618
0002b0 17 6c 14 3e 24 30 ce 3e f1 89 a5 3e 61 2b 54 3e
       0.14494358 0.40271103 0.32331803 0.20719673
0002c0 37 09 d8 3e fe fc 72 3e 6f 61 42 bf f0 2f 7f be
       0.4219453 0.23729321 -0.7592992 -0.2492063
0002d0 ab c1 a8 3e 5d e8 61 bd 83 aa 5e be 2a e4 09 bf
       0.32960257 -0.05515324 -0.21744733 -0.53863776
0002e0 a7 d0 30 bf 63 f4 00 bf b6 8c 10 bf f0 35 e2 be
       -0.6906838 -0.50372905 -0.5646471 -0.44181776
0002f0 b3 d5 72 bd 4e cd 0b 3f d8 57 91 be 06 a8 20 3e
       -0.05928583 0.54610145 -0.28387332 0.15689096
000300 3f 51 a3 be 5d 49 50 be 47 e1 ca be 94 b2 03 3f
       -0.31897923 -0.20340486 -0.39624998 0.51444364
000310 19 85 8e be e9 d6 0f bf 8d 12 4b bf bc ad f1 3e
       -0.2783592 -0.561873 -0.7932518 0.4720286
000320 fc a6 3a 3f d6 4e d5 3d 86 95 06 be 87 7e 33 3f
       0.7291105 0.104154274 -0.13142976 0.7011494
000330 84 85 0f 3f 31 83 0d bf 9d 3a 9e 3d 62 30 c3 3e
       0.56063104 -0.5527831 0.07726023 0.3812285
000340 66 46 97 3e 63 08 ff 3e fa f7 e2 3e 20 ab bf 3e
       0.29545897 0.49811086 0.44329816 0.37435246
000350 bb 70 4d be af 83 74 be f8 65 6c 3e b2 00 e3 be
       -0.20062535 -0.23878358 0.23085773 -0.44336468
000360 d6 68 cf be b8 c3 85 be 55 d8 fa 3e 02 7d cd 3e
       -0.4050967 -0.26125884 0.48993173 0.40134436
000370 8c b9 2a bf 0c 24 00 be 17 4c 14 bf cc 24 11 3e
       -0.6668937 -0.12513751 -0.57928604 0.14174193
000380 d0 c2 78 3f 9f 45 95 3f 24 07 21 bd df 5f 45 be
       0.9717226 1.1661872 -0.03931345 -0.19274853
000390 07 88 17 3f 5a d7 b5 be f9 cb 74 be 96 b4 9d be
       0.59191936 -0.35515863 -0.23905934 -0.3080184
0003a0 52 4a cc 3e 89 b7 e9 3e e2 fe 85 be 5b d3 09 bf
       0.39900452 0.4564784 -0.26171023 -0.5383813
0003b0 d0 b9 70 be 88 ec e7 3d 00 08 02 be 52 b1 e8 3e
       -0.23508382 0.11324412 -0.12698364 0.45447785
0003c0 23 96 f8 3e 9f 61 e0 be a7 5d a2 3d 63 10 4f 3f
       0.48552045 -0.4382448 0.07928019 0.8088438
0003d0 2e 02 6d 3e 38 a7 21 3f 49 ca 86 be f9 14 bc 3e
       0.23145363 0.6314578 -0.26326206 0.3673475
0003e0 92 43 07 3f 42 57 d8 3e 21 4e 26 3e 09 9f b5 3e
       0.5283748 0.42254072 0.16240741 0.35472897
0003f0 23 65 36 3f a2 5f 3d 3f ac a3 b9 3e d2 eb d4 be
       0.7124807 0.7397405 0.36257684 -0.41586167

l1.bias f4 [8]
000000 67 0f f4 3e e7 c7 84 3f 89 87 3f 3f ff 65 2d 3f
       0.47668 1.0373505 0.74816185 0.6773376
000010 1f 7f 29 3f c8 7c 22 3f ad 16 04 3f 98 da d1 3e
       0.66209596 0.6347165 0.515971 0.40987086

l2.weight f4 [8, 8]
000000 9b 86 c9 be 4b 43 bf 3f ba 54 33 be 89 59 83 bf
       -0.39360508 1.4942411 -0.1751279 -1.0261699
000010 16 6f 88 3f d3 01 6d bf 3b 82 5b 3e cb 10 7c 3f
       1.0658901 -0.9258091 0.21436398 0.98463124
000020 eb 4c 69 bf 2c a2 11 bf f2 be b4 3f 24 ff 86 3d
       -0.9113299 -0.5688808 1.4120772 0.06591633
000030 9a 3a 46 3f 49 67 5c 3f ec 89 93 3f 5f b1 65 be
       0.7743317 0.860951 1.1526465 -0.22430943
000040 c4 3f bc 3f 15 39 75 bf fa 0c 16 3e 10 4f f5 3f
       1.470696 -0.95790225 0.14653388 1.9164753
000050 f0 26 8a 3f 77 33 a5 3f 4e 50 1d bf 40 b2 8d 3e
       1.0793133 1.2906331 -0.6145066 0.27675056
000060 34 1a 1b bf 1d ca a3 3f e4 24 00 3f 3e e7 59 bf
       -0.6058686 1.2796055 0.5005629 -0.8511847
000070 f6 c7 c4 3e 34 c9 af 3f ab e0 11 bf c1 81 12 3f
       0.38433808 1.3733277 -0.5698344 0.5722924
000080 8b 8e 54 be 29 b1 ff 3e 6c 22 99 be d0 fd 00 3f
       -0.20757501 0.4993985 -0.29909074 0.5038729
000090 64 52 67 3f 28 e5 97 3f 49 cc 31 bf 2d e7 63 be
       0.90360093 1.1866808 -0.6945234 -0.22256155
0000a0 ce 8a 0e bf 79 f6 e9 3f de bd 85 3f 10 ce 9f 3e
       -0.5568055 1.8278342 1.0448568 0.312119
0000b0 75 fd 38 3e f7 b8 ec bd 00 18 dc 3f 99 3f 83 bf
       0.18065436 -0.11558717 1.7194824 -1.0253783
0000c0 1e 11 7d 3f ba 98 f2 3e 8b 80 91 3f 41 62 01 3e
       0.98854244 0.47382146 1.1367353 0.12635137
0000d0 50 d1 4c be 98 9a 1c bf ef 73 e6 3f b9 59 3a 3f
       -0.20001721 -0.6117339 1.800413 0.72793156
0000e0 a9 b4 6b 3f bd 89 33 bf 70 c5 46 3f 05 99 fe be
       0.9207254 -0.70132047 0.77645016 -0.4972612
0000f0 48 f6 77 3f 51 ad 11 bf 8e b7 8a 3f d3 6c ed 3f
       0.9686017 -0.56905085 1.0837266 1.8548836

l2.bias f4 [8]
000000 22 59 08 3f 49 32 d1 bd 89 ca 16 3f aa 40 04 3f
       0.53261006 -0.10214669 0.58902794 0.5166117
000010 e2 fb 88 be ea 90 5f 3f a4 28 2a 3e a6 c2 f0 be
       -0.2675467 0.87330496 0.16617066 -0.47023505

l3.weight f4 [16, 8]
000000 3b 2e 81 bf b3 19 3e 3e 90 85 1a 3f f1 e5 be 3d
       -1.0092233 0.18564491 0.6036005 0.093212016
000010 03 0e 2b 3f 3a 1d 68 be cb 3d 0c c0 22 47 de bf
       0.66818255 -0.22667399 -2.1912715 -1.7365458
000020 1f d0 0f 3f 12 12 1a bf 22 12 af bf 54 5c 9c be
       0.5617694 -0.60183823 -1.3677409 -0.3053919
000030 8a 9e e0 bf 1b cc 3a be c4 9b 76 3e cb 77 2f 3f
       -1.7548382 -0.18241923 0.24082857 0.68542165
000040 74 69 06 c0 b0 1e 78 be 95 63 10 3e 76 aa cc bf
       -2.1001863 -0.24230456 0.14100488 -1.598952
000050 80 fd 5b bf 13 38 3d bf f2 6b e2 3e e4 ad 24 3f
       -0.85933685 -0.7391369 0.4422298 0.64327836
000060 b7 0d 5b be 5b e5 b1 be 14 c4 51 3e ea 84 fe 3e
       -0.2139195 -0.34745297 0.20484954 0.4971078
000070 40 9b 42 3e e3 4b a0 bf b9 82 1f bf 4e b4 88 3e
       0.19004536 -1.2523159 -0.6230884 0.26700062
000080 ea de 4a bf 52 11 d1 bf 24 69 59 3f 58 b3 ba bf
       -0.7924639 -1.6333411 0.84926057 -1.4585981
000090 0e 6d 08 3f 05 b9 97 bf 58 9a fd be e7 34 11 bf
       0.53291404 -1.1853338 -0.49531817 -0.5672135
0000a0 9d c7 65 3f 72 a8 27 c0 7c ff e2 bf 08 ea cc 3e
       0.8975771 -2.619656 -1.7734218 0.40022302
0000b0 db 58 dc bf 85 93 14 3f 5e fe 0f 3f 4a ea 50 bf
       -1.7214617 0.58037597 0.5624751 -0.81607497
0000c0 20 d6 e8 3d e7 66 30 bf bb 20 87 3e 8b 9b c9 bd
       0.11368966 -0.68907017 0.2639216 -0.098441206
0000d0 1e 9d 1d bf 13 34 b6 bf ef e7 57 3d 0d ca 8e 3e
       -0.61567867 -1.4234642 0.052711423 0.27888528
0000e0 b8 b1 1c bf a3 10 18 3f 83 f1 86 bf d4 50 5f 3f
       -0.6120868 0.59400386 -1.0542454 0.8723271
0000f0 32 f7 11 bf ae 7b 3c 3f 55 14 e3 bd 48 9e fb bf
       -0.57017815 0.7362622 -0.110878624 -1.9657679
000100 6e d1 cd bf a0 74 4c 3f b8 05 9a be 28 99 01 c0
       -1.6079538 0.79865456 -0.30082488 -2.024973
000110 e5 70 37 bf 8b 3c 03 3f 09 dd 58 3e ce 09 6d be
       -0.7165664 0.51264256 0.21178068 -0.23148271
000120 15 d5 4c bf c9 79 31 3f 3e fb 2a be 4f c8 e4 3a
       -0.8001264 0.69326454 -0.16697404 0.0017454716
000130 ef 79 ca bb a1 f9 06 3e 8a fd 10 bf 72 09 5d bd
       -0.0061790864 0.13181163 -0.5663687 -0.053964086
000140 4d 1c 3b 3f d7 93 c6 bf 3b b5 e9 bf 70 dd 07 3f
       0.7309006 -1.5513867 -1.8258432 0.5307226
000150 bc b0 97 3e 7c 7c 1b 3f 97 b0 9d bf 80 e3 be bf
       0.29627025 0.60736823 -1.2319516 -1.4913177
000160 01 2c d6 3e 46 d8 98 3e 19 12 06 bf 20 a7 84 3e
       0.41830447 0.29852504 -0.52371365 0.25908756
000170 c2 67 1b 3f c8 77 d3 3d 6a 01 02 c0 ae 00 6a bf
       0.60705197 0.10325581 -2.0313363 -0.9140729
000180 61 c9 c4 3c 51 d4 29 3e e6 ca 3b be bb c1 78 bf
       0.024021806 0.16584899 -0.18339118 -0.9717061
000190 ab 65 9d bf 40 db 01 be 0f d2 a4 3d 91 1f c7 3e
       -1.2296652 -0.12681293 0.08047878 0.3889127
0001a0 3c 72 bb bf 31 10 85 bf f2 cf a4 3e 5b bb 27 bd
       -1.4644237 -1.0395566 0.321899 -0.04095016
0001b0 e2 52 53 3e dd d7 e4 3e d2 d9 71 3c 7e c0 b6 bf
       0.20637086 0.4469594 0.014761405 -1.4277494
0001c0 7e 12 2a bf a2 b3 2c c0 8c 91 02 3f 18 62 ad bf
       -0.66434467 -2.698464 0.51003337 -1.3545561
0001d0 58 f3 ee bf f4 fd 19 3f 65 ca fd 3e fb 35 af bc
       -1.8668013 0.60153127 0.49568477 -0.021388045
0001e0 b7 5e 25 3e 4c 9e d3 3e 6a a1 ba bf c5 0c ad 3e
       0.16149412 0.41331708 -1.458051 0.33798805
0001f0 7d 94 7b be 59 9c d0 bd fc c8 37 be 1b 50 39 3e
       -0.24568363 -0.10186071 -0.17947763 0.18096964

l3.bias f4 [16]
000000 d3 60 01 3e 2f 1a 43 be 83 de 04 bf 3a 5c ec bd
       0.12634592 -0.19052957 -0.51902026 -0.11541028
000010 d2 45 d8 3b 79 97 13 3f fb c9 d1 be 1e 72 6b 3e
       0.00660012 0.57653004 -0.4097441 0.22992751
000020 29 5a 96 bc 6b 0e 0a bf 35 15 72 be 30 65 84 be
       -0.018353539 -0.5392825 -0.23640902 -0.2585845
000030 83 b2 d5 be a7 4e 4f be 02 1c 2c 3f 73 a9 91 be
       -0.41737756 -0.20244847 0.67230237 -0.28449592
